model/model.pth (torch, 16787 bytes, 4 tensors)

linear1.weight f4 [256, 11]
00000000: 526f 39be 0a70 78be 267c 18be 0ef6 66be
00000010: 0044 8cba c436 c63d 42a8 98be 54f4 9cbd
00000020: 00bd 293d 8897 673d 3037 aebc 4cdf 4cbe
00000030: 9aec 6f3e ba2f 76be ec25 e4bd a8f5 983e
00000040: 892c 0c3e 4b6f 143e 53d1 f7bb 3bd5 81be
00000050: 10ac 43be 856e a93d dee8 d93d 4452 42be
00000060: d047 3cbd bca1 44be e815 513e 8062 f3bd
00000070: ecdf fcbd ea3e 89bb f2e6 00be 80a9 4ebe
00000080: 553f 9a3e 8fa4 f6bd 58f8 14be 33b0 51be
00000090: c3d9 a03e 995e 993e ad4d 273d f23e 82be
000000a0: d8c4 573e bd8d 643e 3c54 75be b2f6 303e
000000b0: 45b8 73be 40b7 a43c f321 193e cee4 59be
000000c0: 458f 293e 21ba 51be f1de 9cbe 0d8f b03d
000000d0: 5ad5 7bbd a26f 6c3d cec7 1c3e 12df f63d
000000e0: f510 793e 8d3d 08be 7248 7a3e 403f 443c
000000f0: 7b0f 843e a1ae 873c b5f5 0a3d c130 9ebd
00000100: bdec 66be 1998 5dbd 4d7b 37bd 4f6f 863e
00000110: 7e56 96bd 9876 a33e 2ab2 693e 7001 843c
00000120: e32c 923d 04ef 03bd 0cbb 133c 5809 7d3e
00000130: fbd1 53bc d642 57be 2258 08be 7601 45be
00000140: ad5d 8fbe 2895 09be 44e0 933e cebf ab3d
00000150: 7fb0 873e 77e9 7fbe 1281 1bbe ab83 8c3e
00000160: 90da 303d 803a 9a3d 7087 eabc 02ce 0b3e
00000170: 054a 4cbe 7433 9bbd 54b8 66be 3ebe 70bb
00000180: dc14 39be 6597 51be 2077 633e 1f74 853e
00000190: f09a bd3c b889 a63d c412 66bd bed1 66be
000001a0: f94c d0bc b04e 183d c402 3d3e aa29 b4bd
000001b0: ddd6 78be 427d 60be b7b6 a43e 70ce c63c
000001c0: 6dbe 033d 1995 10be 2cb7 753e fac8 78be
000001d0: eb36 41be b906 963e ed6a 20be 44db 30be
000001e0: eaf7 7f3e 3d5c 5dbe f16b 84be 7bf9 1dbe
000001f0: d0e1 413e d693 f8bd f0b1 fd3d 603f 77bd
00000200: 8e3b f1bd ecd4 d1bd 6c49 b33d 801c 893d
00000210: 65be 93bd a0bc 9e3c 6965 073e 80ed 8d3e
00000220: 8d90 4cba 5519 893e 241c aebd d308 25be
00000230: 8373 df3d 64c6 27bd 4f84 63bd 6a5b bf3c
00000240: 5cf0 563e 7976 773e 3abe 1e3e e058 143e
00000250: 5b8c 703e 7ec4 973e 9262 863e 3549 3b3e
00000260: 456d 42be 16b8 c93d ea53 55be febd 91bd
00000270: b883 e53d c0db 6bbe a46c 92be af39 8abb
00000280: 3260 53be 2d91 87be 9d28 7c3e a00c 43be
00000290: 6a63 86be fa06 8e3e 2cd1 bc3d c01a f23d
000002a0: f66d 873e 56f1 9a3c ee83 96be b262 f43c
000002b0: ccf3 453e 23e6 85be 2b13 e1bd bb82 8c3c
000002c0: fbe1 29be e2c9 94bd cf32 ad3d 7b9c eb3b
000002d0: 1d31 34be be05 9fbe 26df 7a3e 741d 753e
000002e0: 1385 c8bd 2264 923e dd06 373e 3bc2 723e
000002f0: 6645 ae3d a9aa 88be af56 e03d ffe5 583e
00000300: b48d a73c 31f6 acbd c4e7 973e 0424 7ebe
00000310: 057b 763e 8b32 13be c46d 713e f5c6 9c3d
00000320: e835 56bd 1243 fb3d 0fcc 98bd c65c 7a3d
00000330: b3a0 9b3d 639f d1bd 86a2 4abe 5a52 953e
00000340: 5989 27be 73d2 123e 5e68 813e 2464 763e
00000350: 8bcc 943e dfd1 cc3d f022 fe3d f726 d23d
00000360: 0833 a3bc f1b0 2c3b 58d2 633d f80a e6bd
00000370: 4929 aebd 9d9b 283e 70e2 9cbe db53 13be
00000380: 374f 053e 9049 7dbe 3905 a83d 852a 853e
00000390: 66dd 843e 1fee 8e3e 5734 793e 793f 2e3e
000003a0: fad1 69be ef13 4bbe d2c3 a4bd f3dc 703e
000003b0: 9901 1bbe 0027 993a 3e98 82bd a5e0 2abc
000003c0: c158 62be 8966 48be 712a 46be e794 80bd
000003d0: a171 563e 3785 c53d 4622 b4bd 988c 333e
000003e0: 5af7 95be 2c71 58be bc3b 963e 2c3d 233e
000003f0: 768a 853e e09a 35be 844f 95bd 1e11 2ebe
-0.18108872 -0.2426149 -0.14891109 -0.225548 -0.0010701418 0.096784145 -0.2981587 -0.076637894
0.04144001 0.056540996 -0.02126655 -0.20007056 0.234301 -0.24041644 -0.111400455 0.2987492
0.13688864 0.1449558 -0.007562795 -0.25357994 -0.19108605 0.08273033 0.10640119 -0.18976694
-0.045966923 -0.19202322 0.20418513 -0.11884022 -0.12347397 -0.004188408 -0.12588099 -0.20181847
0.30126444 -0.12043106 -0.1454786 -0.20477371 0.3141614 0.29954985 0.04084556 -0.25438648
0.21071184 0.22319694 -0.23957914 0.17281607 -0.23800762 0.020106912 0.14954357 -0.21278688
0.16558559 -0.20481159 -0.3063884 0.08621035 -0.061482765 0.05772365 0.15310594 0.12054266
0.24322875 -0.1330473 0.24441698 0.011977971 0.2579306 0.016562762 0.03392573 -0.07724143
-0.22551246 -0.05410013 -0.044795323 0.26256797 -0.07340716 0.31926417 0.2282187 0.016113967
0.07137468 -0.032210365 0.009016763 0.24710596 -0.012928481 -0.2102159 -0.1331487 -0.19238839
-0.28001156 -0.13435805 0.2888204 0.08386193 0.26501843 -0.24991404 -0.15185955 0.27444205
0.043177187 0.07530689 -0.028629035 0.13652804 -0.19950111 -0.07578173 -0.22531253 -0.0036734487
-0.18074363 -0.20467909 0.22213411 0.26065156 0.023145169 0.081317365 -0.05617024 -0.22540948
-0.025427328 0.037184417 0.18458086 -0.08797009 -0.24300714 -0.21922782 0.3217065 0.024268359
0.032164026 -0.14119376 0.23995656 -0.24295416 -0.18868606 0.29302004 -0.15665789 -0.17271143
0.24996915 -0.21617217 -0.25863603 -0.154272 0.18933797 -0.121375725 0.123874545 -0.060363173
-0.11778937 -0.1024569 0.087542385 0.06694889 -0.07214049 0.019377053 0.13222279 0.2772026
-0.0007803522 0.2677714 -0.08501461 -0.16116647 0.10910704 -0.040960684 -0.0555461 0.02335902
0.20990127 0.24166287 0.15502253 0.14487028 0.23491041 0.296421 0.26247078 0.18289645
-0.18986996 0.09849565 -0.20832792 -0.07116316 0.11206764 -0.23033047 -0.2859851 -0.004218302
-0.20642164 -0.26477948 0.24624868 -0.19047785 -0.26247722 0.27739698 0.09219584 0.118215084
0.2645108 0.018913906 -0.2939753 0.029832218 0.19331282 -0.26152143 -0.10989984 0.01715218
-0.16590111 -0.072650686 0.084569566 0.007190285 -0.1759686 -0.31059068 0.24499187 0.23937017
-0.09791007 0.2859202 0.17873712 0.23706906 0.085093305 -0.26692703 0.109540336 0.21181487
0.020453312 -0.08445395 0.2966901 -0.24818426 0.24070366 -0.1437475 0.23577029 0.076551355
-0.052297503 0.12268652 -0.07460796 0.061123632 0.0759901 -0.10235479 -0.1978856 0.29164392
-0.16360988 0.14338093 0.25274938 0.24061638 0.29062304 0.10000967 0.124090075 0.10261338
-0.019921795 0.0026350582 0.05562052 -0.11232561 -0.08503968 0.16465612 -0.30641508 -0.14387457
0.130185 -0.24735093 0.08204121 0.26009002 0.25950164 0.27916047 0.24336372 0.170164
-0.22834006 -0.19831823 -0.08045162 0.23521785 -0.15137328 0.0011684597 -0.06376694 -0.010429536
-0.2210417 -0.19570364 -0.19352128 -0.06278401 0.20941783 0.09644549 -0.087956 0.17534101
-0.29290277 -0.21136922 0.2934245 0.15941304 0.260822 -0.17734861 -0.07290557 -0.16998717

linear1.bias f4 [256]
00000000: ebe5 7bbe 2c64 8e3e 1dd3 6dbe 1aa3 34be
00000010: 3153 963d b504 293e f1c7 d23d 3bb6 eabd
00000020: aaca 6ebe 268e 1dbe 4d53 833d 34cc 75be
00000030: 1854 74be 76a5 d53d bfd1 85be 9e3c 66bd
00000040: 1734 ac3e 3f0b ce3d 1c9e bebd e482 3b3e
00000050: 4800 5c3e c9d8 9cbd ed5a 273e f8a1 9c3d
00000060: 7ab0 993e a4dc 1cbe 1378 5c3e c4ce 853e
00000070: 044a 153e 809e c5bd 7609 4c3e 9319 08be
00000080: 37d6 e13d 81ae 853e cea6 523e 998c 7cbe
00000090: bf1d 1fbd a256 f8bd 5e4d 05bc 370b 7a3e
000000a0: 508d 63be 29e2 ad3e 1e98 7cbe 33ac b4bd
000000b0: fe8e 033d 7c47 563d 8aab a5bd f766 53bd
000000c0: cdc5 91be e636 fa3d e048 2ebd 0483 4a3e
000000d0: ab3e 823e fb6b c13c 6775 8c3e dfc7 2dbe
000000e0: 1527 1dbe 0bf4 6e3d d9e7 e4bd 697a 6a3c
000000f0: c32d 24bd 8315 d4bc 0796 403e 4477 fc3d
00000100: 0991 d33d f7ee 603e 644c 7fbc 814d 743d
00000110: 5f79 10bd 07e4 abbc 61cb 88be 0c1f 9f3d
00000120: 21ab c13d d865 883e ffc8 d03d 790f 773d
00000130: 2fcb 92be f778 00be e84e 86be c5e4 73be
00000140: bcff 65be e4cd 963c 4468 9bbe 5e8d 463e
00000150: 37a8 843e 592a 3f3e 15ec 24be 5887 023e
00000160: 60d7 06be cc9a ea3c b889 bcba 7530 50be
00000170: 04aa a93c e0f2 9b3e c533 913e 9513 18be
00000180: 6f30 67bd cf9c 1abe 67ce 4ebd b580 f23d
00000190: ce3b 99be b681 133e 1c56 2e3e 28b5 3bbe
000001a0: fc4b 603e 0b0d 613e 4440 203e 2cc5 4d3e
000001b0: bb58 41bd 03ac ad3c bb39 7a3e b526 4f3e
000001c0: 983e 903d 753f 5e3e e3a2 35be a41d 14be
000001d0: 865e 8b3e 372e 0f3d c5c5 363d 5cc8 60be
000001e0: 683c b23d 7e22 233e 95b6 1a3e 9012 dfbd
000001f0: 8c36 81bd 2191 8abe c057 0b3b 35b8 073e
00000200: 4d5a 003c 38f4 e8bd 99ab 5dbe 51ac 08be
00000210: 6e37 f73d 6108 76be 62a4 533e 626d 38be
00000220: 135e caba d13c cfbd 36e8 dbbd b921 0c3e
00000230: 2ba7 fd3d 5c81 19be 5d92 7ebd a723 49bd
00000240: 3a40 49bd d549 e9bd 6c36 29be 8e71 7abe
00000250: 173a 203e c27e 0fbe 151a e1bd d1c1 0c3e
00000260: 1b5e 8e3d 52c7 00be 5e21 49be ef44 11bd
00000270: fa92 963e aafd 7abe cafb 9c3d 4627 5fbe
00000280: d186 023e 53e8 ae3d b32d 813e 28ca bd3d
00000290: 45fb 863e f1df 5cbe 03a4 69be d48f 7fbe
000002a0: d608 45be 9472 3cbe c7d8 a83d f672 813e
000002b0: 9a92 1ebe 5869 2dbd e76c 523d af26 13bd
000002c0: e29d 33be 6f91 e33d 4f51 9c3e b947 a6be
000002d0: c7bd 5b3e da3f 96bc ccda 5f3e 5d75 823e
000002e0: 2f7a 8dbc 0271 263e 2f6e 3ebe d820 49be
000002f0: a523 97bd 8a87 87be 9839 b5bd 2a46 063d
00000300: 3f79 87be eb5c 423e 4bcd 0cbe e53d 7dbe
00000310: 38b8 a7bd 628c 243d 71ed 413e 80da 7ebe
00000320: c3d9 8cbe 8aec 293e da7b 29be bbe4 fabc
00000330: 0922 08be 5291 d0bd 24ab 08be ddc4 34be
00000340: 7998 503e c2e5 973c 8c10 4e3e bb99 e83d
00000350: b66c ce3d 56ee 5cbe a498 f73b 2ccd 843e
00000360: 56f8 4fbe b2af 50be 4859 4e3e dec2 593e
00000370: 4fa5 e9bc 5895 3e3e c707 9d3d 68b7 8cbe
00000380: ce17 9ebd baba 373e ddb0 8b3e 396f 60bc
00000390: e7d5 3dbe cb4a a4be 5db7 713e c8d3 3b3d
000003a0: f3a4 e4bc cda9 d53b d06f 9abe 5c61 783d
000003b0: dcbb 7dbe 701e b93d aaf7 683d 134e 8bbd
000003c0: b7d3 6a3e 3152 b0bd 52f0 10be 4879 9f3d
000003d0: 4d01 18be 9d7c 5a3e 57c7 71be a150 463e
000003e0: 5304 4dbe b578 9abd 6436 ffba 1fb8 883e
000003f0: 3840 163e 18bf 38be 9042 49be f4a9 373e
-0.24599425 0.278108 -0.23225065 -0.17640343 0.07340086 0.16505702 0.10292042 -0.11460539
-0.23319498 -0.15386257 0.06412373 -0.24003679 -0.23860204 0.1043195 -0.26136586 -0.056210153
0.3363349 0.10060739 -0.09307501 0.1831165 0.21484482 -0.07658536 0.16343279 0.076480806
0.30017453 -0.15318543 0.2153018 0.26134312 0.14579016 -0.09649372 0.19925484 -0.13291006
0.11027186 0.26109698 0.20571443 -0.24663009 -0.038846727 -0.12125899 -0.008136122 0.2441834
-0.22221875 0.3396161 -0.24667403 -0.08821907 0.03211879 0.052314267 -0.08089359 -0.051611867
-0.28471223 0.12217502 -0.042549968 0.19776541 0.25438437 0.02361106 0.2743332 -0.16970776
-0.1534694 0.058338206 -0.11177034 0.014311411 -0.040082704 -0.025889164 0.18807231 0.123274356
0.10330398 0.21966158 -0.015582178 0.059644226 -0.035272 -0.020982755 -0.26717666 0.077695936
0.094564684 0.266402 0.10194587 0.06031749 -0.28670642 -0.12546144 -0.26232076 -0.23817737
-0.22460836 0.018408723 -0.30352986 0.19389865 0.25909588 0.18668498 -0.16105683 0.12746942
-0.13168097 0.028638266 -0.0014384305 -0.20330985 0.020710953 0.30458736 0.2835981 -0.1485122
-0.056442674 -0.1509888 -0.05048981 0.11840955 -0.2992844 0.1440495 0.17025036 -0.18330824
0.21903986 0.21977632 0.15649515 0.20094746 -0.04720376 0.021200186 0.24436085 0.2022961
0.07043189 0.21703894 -0.17737918 -0.14464432 0.27220553 0.034956183 0.0446222 -0.21951431
0.08702928 0.15931126 0.15108712 -0.108922124 -0.06309232 -0.2706385 0.002126202 0.13253863
0.007834029 -0.11374706 -0.2164749 -0.13346983 0.12071119 -0.24026634 0.20668176 -0.18010476
-0.0015439413 -0.10119022 -0.1073765 0.13684739 0.123854004 -0.14990753 -0.0621513 -0.049106266
-0.049133517 -0.113910355 -0.16524667 -0.2445738 0.1564716 -0.14013198 -0.10991303 0.1374581
0.06951543 -0.12576035 -0.19641635 -0.03546613 0.2940901 -0.24510828 0.076652125 -0.21792325
0.12746741 0.08540406 0.25230178 0.09267074 0.26363578 -0.21569802 -0.22816472 -0.2495721
-0.19241652 -0.18403083 0.08244472 0.2528302 -0.15485612 -0.04233679 0.05137339 -0.035925563
-0.17540696 0.11111724 0.30530784 -0.32476595 0.21459113 -0.018340994 0.21860808 0.25480166
-0.017270176 0.16254047 -0.18596719 -0.19641435 -0.073798455 -0.26470596 -0.08848876 0.032781757
-0.2645969 0.18980758 -0.13750188 -0.24730642 -0.08189434 0.040172942 0.18938233 -0.24888039
-0.2750989 0.16594139 -0.16551152 -0.030626645 -0.13294233 -0.10183968 -0.13346535 -0.17653222
0.20370664 0.018542174 0.201235 0.11357447 0.10079329 -0.21575293 0.007556038 0.25937784
-0.20309576 -0.20379522 0.20151246 0.21265742 -0.028521208 0.18611658 0.07667499 -0.27483678
-0.07719384 0.17942324 0.27283373 -0.013698393 -0.18538629 -0.32088313 0.23605104 0.045856267
-0.027910685 0.006520486 -0.3016343 0.060639724 -0.24778694 0.090390086 0.056876816 -0.06802001
0.22932325 -0.08609427 -0.14154175 0.077868044 -0.14844246 0.21336599 -0.23611198 0.19366695
-0.20021181 -0.07542554 -0.0019471166 0.26702973 0.14672935 -0.18041646 -0.19654298 0.17935926

linear2.weight f4 [3, 256]
00000000: 60c7 3d3b 92a2 bd3c e4b7 07bd 303e 753d
00000010: 25ca c0bc 29ac fdbc c909 cdbc 9161 02bd
00000020: 01eb e0bc fae0 98bd f4f4 17bd d08f eb3b
00000030: c86b e83c a963 21bd 4322 053d e33d 97bc
00000040: fd95 3dbd a0ca 78bd 8e3c 6abd eea3 cd3c
00000050: ee17 2e3d 1be8 a93b 7f22 603d 59ee 4ebc
00000060: 9e95 2cbd 50bb 9b3c 21c3 13bc 7d8e d7bc
00000070: 11bd 65bd 9845 303b a49f 6abd 2082 93bd
00000080: 8337 a5bd bf21 c63c 4e1f 31bc 8b1c 343c
00000090: 5e2d 8a3c 3499 013c ebcf 03bd a0aa 533d
000000a0: 4d03 e93c 7c5b 09bd 1605 313d a770 ec3c
000000b0: c5a2 b6bd 9c8f debc 6397 cdbd f87e 15bd
000000c0: ec12 f13c 72cc 82bc 7c33 30bd e334 403d
000000d0: e041 9139 4e2f 4dbc fe1e c0bc 6422 893d
000000e0: 6ead a63c 4c40 bb3c e075 6a3d 3317 9f3d
000000f0: 238f 43bd 4421 2a3c 54fc a73c 3c90 7ebb
00000100: e7c6 b4bd 0584 81bc d3ab ebbc 20ce 40bc
00000110: add9 103d dba8 65bb 96f0 0c3d 0613 12bd
00000120: 512a 54bd 9781 e73d 4e88 a1bd 10bb d4bc
00000130: 237c 023d 266b 4d3c abb5 d83c 79eb 58bd
00000140: 6a41 50bc 44ee dbbc 0022 8dba ec05 923b
00000150: 7d69 35bd 6e0d 14bd 84f1 0fbd 83ac 28bd
00000160: 699f 8dbc 1114 b1bc 5723 09bd c88f fdbc
00000170: 5100 06bd 9d53 643d 3072 59bd c0e1 d1bb
00000180: bbfb ebbc 1fb5 ffbc 45de 0c3d 39e7 9ebd
00000190: d0c9 ee3b ff4c 8bbc f412 b0bd a1ee 363c
000001a0: c43e 8cbd 5962 34bd 1bb4 a1bd f1c5 b23b
000001b0: e6cc 7ebd 3362 a43b f946 97bc fc57 9dbd
000001c0: c1be 8ebd 3e03 22bd fecc dcbc 4de7 19bc
000001d0: 4e8a a5bd b855 12bd 287b 563c 5430 e13c
000001e0: 738b de3c 7a66 49bd 2425 de3c 226c 853d
000001f0: d0d8 cdbb eb66 20bd 5737 60bc 3443 8ebb
00000200: 4dae 08bd 0131 903d fcfc d53b 74af 53bd
00000210: 62b6 d23c b676 663d 5a26 c1bb dbb3 5c3d
00000220: 31e3 10bd c488 33bc eb3f e8bc 8cd2 aa3d
00000230: e449 673d 9af7 953d e1a4 b7bd 851e 28bb
00000240: 8d29 33bd f056 4239 6e79 67bb d2dc 94bd
00000250: 40c7 7dbd b0c6 e7bc 1203 2fbc 6f5c 8bbd
00000260: 741d 9bbc f1d5 5dbd 66dc 2f3d 2a4a 84bd
00000270: 3e10 60bd 4573 293d eb95 42bd 550d c3bc
00000280: ad77 01bd 4c84 d13c 8cc7 0dbc cde6 983c
00000290: 44b9 58bb 468e 683b df4b 233d f448 32bd
000002a0: bf0d 81bd 3d8a 693d 19e9 0ebc 32ae 0cbc
000002b0: 98c8 78bd da6e 4ebd 18b9 b4bd 2dce 99bd
000002c0: 28a6 31bc d06c e43d dd80 cebc 3358 d0bc
000002d0: 1505 16bd 2f1b 9fbc 10c3 dfbc a7cf 283d
000002e0: 4007 a0bc 285f 61bd cec0 8fbc 9a56 153d
000002f0: a6e0 3d3b c681 75bd 9911 27bd cbba d4bb
00000300: 8d6a dcbc 03f5 2abd ad93 913c 6fda 023e
00000310: 3896 253c ee8f 46bd a84f 1e3d b16b 0f3c
00000320: 3de3 ce3d 0fdc 8b3d ec4d 07bc e43f 90bd
00000330: f3d9 8fbc 3e48 36bd 6063 f03c 4135 47bc
00000340: 550e 8f3a 39fa 0fbd 01c7 bbbc dcc0 553d
00000350: 4dfe 87bd 642d a2bc 18e3 d73b aac8 adbd
00000360: 00e6 82bc e581 05bc 8e32 483d bf63 a6bd
00000370: f284 3b3c e71d 2bbd 35a7 7bbd d7d4 d3bc
00000380: 15e7 08bd 4066 41bc 8c78 0f3d da16 94bd
00000390: 944f 2d3d 900e 2dbc 4881 44bd d18f 8dbc
000003a0: bcf3 d33d affc 853c 721b 623d 6a49 2d3d
000003b0: 9826 7f3d 8233 343d 1fcb 84bd 1633 333c
000003c0: 9537 0abd 13b9 6d3c cf29 7fbc 095b 6bbd
000003d0: 1040 cabc d959 2abc efa5 54bd 5ebf 89bc
000003e0: 5c04 8f3a 3f9f 0e3b b4f7 6e3d f883 ee3c
000003f0: 68cc 8c3c 8787 f73b 4a0b b8bc afc1 b4bd
0.0028957948 0.023148809 -0.033134356 0.05987376 -0.02353389 -0.030965881 -0.02502908 -0.031831328
-0.027455809 -0.07464786 -0.03709884 0.0071887746 0.028371707 -0.039401684 0.032503378 -0.018462127
-0.046285618 -0.060740113 -0.057186656 0.025102582 0.04250329 0.00518514 0.054720398 -0.012630069
-0.042134874 0.019010216 -0.00901869 -0.02631306 -0.05608851 0.002689695 -0.05728115 -0.07202554
-0.08067229 0.024186013 -0.010810686 0.010993133 0.016867336 0.007910062 -0.032180708 0.051676393
0.028443957 -0.033534512 0.04321774 0.02886231 -0.089177646 -0.027168088 -0.1003864 -0.03649804
0.029427968 -0.015966628 -0.04301785 0.046925437 0.00027705636 -0.012523485 -0.023452278 0.066960126
0.02034637 0.022857808 0.05724132 0.07768097 -0.047743928 0.010383908 0.020506062 -0.0038843295
-0.08827 -0.015810022 -0.028768456 -0.011767894 0.03536384 -0.0035043273 0.034409128 -0.035662673
-0.05179817 0.11304014 -0.07887326 -0.025968105 0.031856667 0.012537753 0.026453814 -0.05295894
-0.012710908 -0.026847012 -0.0010767579 0.0044562723 -0.044290055 -0.03614562 -0.035142437 -0.041180145
-0.017287927 -0.021616014 -0.03348097 -0.03095235 -0.032715145 0.055743802 -0.053087413 -0.0064050853
-0.028806558 -0.031214295 0.03439166 -0.07758946 0.0072872415 -0.017004488 -0.08597365 0.011165292
-0.06847909 -0.044039104 -0.078956805 0.0054557254 -0.062207125 0.005016589 -0.01846646 -0.07682797
-0.06969977 -0.039553873 -0.026953217 -0.009393525 -0.0808302 -0.03572628 0.013090886 0.027488865
0.027166104 -0.049169995 0.02711732 0.06514765 -0.0062819496 -0.03916065 -0.013685069 -0.0043415073
-0.03336935 0.07040597 0.006530402 -0.051680997 0.025721733 0.056265555 -0.0058944644 0.05388246
-0.035372917 -0.0109579 -0.028350791 0.0834094 0.056466952 0.07322617 -0.08966995 -0.0025652957
-0.043740798 0.00018533668 -0.003532018 -0.07268681 -0.061957598 -0.028292984 -0.010681884 -0.0680474
-0.018934943 -0.05415911 0.042934798 -0.06459458 -0.05470299 0.041369695 -0.047506254 -0.023810068
-0.031608272 0.02557578 -0.008653533 0.018664742 -0.0033069411 0.0035485192 0.03986728 -0.043526605
-0.0630145 0.0570166 -0.008722567 -0.008586453 -0.060738176 -0.050398685 -0.08824366 -0.07510028
-0.010842837 0.11153567 -0.025207931 -0.025432682 -0.03662594 -0.019422142 -0.027314693 0.041213658
-0.019534707 -0.05502239 -0.017547991 0.036459543 0.0028973012 -0.059938215 -0.040788267 -0.006491994
-0.026906276 -0.041737568 0.017770613 0.12778638 0.010106616 -0.048477106 0.038650185 0.008753703
0.10101936 0.06829082 -0.008258324 -0.07043436 -0.017559981 -0.04450249 0.02934426 -0.012158693
0.0010914305 -0.03515074 -0.02292204 0.05218588 -0.06640301 -0.019797035 0.006588351 -0.08485539
-0.015978813 -0.008148645 0.048876338 -0.08124494 0.011445271 -0.041776564 -0.061438758 -0.025858326
-0.033423502 -0.011804163 0.03502707 -0.07230921 0.04231222 -0.010562554 -0.047974855 -0.017280491
0.10349223 0.01635584 0.055201955 0.04230634 0.062292665 0.043994434 -0.06484055 0.010937473
-0.033744413 0.014509457 -0.015573933 -0.057459865 -0.02468875 -0.010397398 -0.05191606 -0.016814884
0.0010911333 0.0021762399 0.058341697 0.029115662 0.017187312 0.007553998 -0.02246632 -0.08826005

linear2.bias f4 [3]
00000000: 80bc 8bbc 4263 35bd 9d52 53bd
-0.017057657 -0.044284113 -0.051592458
